encode_words_w2v_new.npy (npy, 513008 bytes, 1 tensors)

array f4 [4274, 30]
-0.3530091 -0.87116337 0.19768658 0.59440136 0.55175453 -0.52566195 0.8985887 0.9177818
-0.6305649 0.81588846 0.38195837 0.8650719 0.71282417 -0.2554008 0.61212736 0.8287026
0.92937034 -0.37001783 0.52858037 -0.8163561 0.97797585 -0.9534575 -0.3832234 0.94083846
0.9085132 -0.7993073 0.8283678 0.772735 0.36689448 0.9252816 -0.59301996 -0.8762396
0.16616237 0.858631 0.68839544 -0.69027436 0.8654886 0.91852146 -0.56831753 0.79676414
0.28353956 0.8613475 0.76460576 -0.38677725 0.8111545 0.765163 0.8992994 -0.5741183
0.5835931 -0.55054086 0.97721916 -0.9124741 -0.5758538 0.96569526 0.9020223 -0.7379214
0.3886554 0.83260095 0.54569846 0.9542649 -0.6235761 -0.85978127 0.1834285 0.86088365
0.7343871 -0.7075478 0.8679999 0.9120233 -0.60701954 0.77102554 0.28134212 0.86139286
0.772901 -0.4038574 0.8296726 0.6893021 0.87259924 -0.6037768 0.5445867 -0.4448269
0.97795916 -0.9078451 -0.5858152 0.9702202 0.8947891 -0.7359763 0.040995233 0.8539353
0.5763621 0.9633873 -0.7716942 0.0093642315 0.26316518 0.2279036 0.7162321 -0.82398766
0.72183 0.43979585 -0.38756758 0.8195764 0.50466853 0.1428738 0.6256099 -0.78320074
0.9287825 -0.5665556 0.87320834 -0.28763026 0.8363115 -0.060969718 0.81780857 -0.83554554
-0.45251083 0.9546386 0.78648645 -0.5522499 0.9590941 0.9191538 0.81433624 0.85319364
-0.6452959 -0.8661838 0.2099763 0.8934105 0.6815411 -0.7211494 0.8637232 0.9169728
-0.61566764 0.7698685 0.8607591 0.8403122 0.7668514 -0.45894963 0.8344888 0.70754397
0.8880109 -0.5635689 0.60324216 -0.47498056 0.97604924 -0.91248935 -0.66652447 0.9729642
0.8893548 -0.72022986 -0.0003863924 0.8736569 0.6352357 0.9553529 -0.62954134 -0.76323986
0.35406712 0.5650859 0.6925585 -0.7064149 0.8414446 0.8737037 -0.59870374 0.7465517
0.75589913 0.7767041 0.64801455 -0.47622254 0.8051356 0.38356468 0.8609533 -0.33798254
0.4976408 -0.56290257 0.95777804 -0.9135134 -0.48981073 0.97107786 0.88152885 -0.6579567
0.57428163 0.8944797 0.6560458 0.9365119 -0.81824046 -0.6997793 0.75076807 0.35761493
0.78398895 -0.8678445 0.77191836 0.7996238 -0.7166398 0.7474952 0.7817158 0.6636901
0.6345529 -0.69283026 0.9081049 0.084774785 0.6517369 -0.59978676 0.40781796 -0.023735356
0.92497987 -0.87351966 -0.43885985 0.9727478 0.8634113 -0.73053944 0.14086679 0.9044813
0.74761415 0.9484768 -0.71142197 -0.8043673 0.3889377 0.7730054 0.7194736 -0.7653215
0.8402817 0.89207137 -0.6616637 0.7418282 0.88448286 0.7853177 0.7072705 -0.52192223
0.85132194 0.523258 0.84359986 -0.5183043 0.47207648 -0.36471078 0.9648948 -0.9071933
-0.600226 0.9756428 0.884069 -0.692369 0.172707 0.89677304 0.6940043 0.9546976
-0.5254181 -0.8070146 0.34747976 0.6158954 0.6479189 -0.6415317 0.8647821 0.90678686
-0.6731551 0.77221406 0.71999896 0.8235986 0.67915416 -0.37554473 0.71852565 0.6895134
00000000: 9cbd b4be 9004 5fbf 5a6e 4a3e b02a 183f
00000010: c93f 0d3f c891 06bf e909 663f bff3 6a3f
00000020: b46c 21bf 11de 503f 0c90 c33e 5a75 5d3f
00000030: a57b 363f e5c3 82be 61b4 1c3f db25 543f
00000040: 37eb 6d3f fa72 bdbe 0b51 073f b7fc 50bf
00000050: a05c 7a3f ca15 74bf dc35 c4be cada 703f
00000060: 5294 683f 679f 4cbf ea0f 543f f6d1 453f
00000070: 98d9 bb3e 41df 6c3f 28d0 17bf 3d51 60bf
00000080: 7826 2a3e 3ecf 5b3f af3a 303f d2b5 30bf
00000090: a990 5d3f 3924 6b3f 427d 11bf bcf8 4b3f
000000a0: 192c 913e 4581 5c3f 34bd 433f ab07 c6be
000000b0: d2a7 4f3f b9e1 433f 7c38 663f 6bf9 12bf
000000c0: 5b66 153f 3ff0 0cbf 092b 7a3f e797 69bf
000000d0: 286b 13bf ce37 773f efea 663f 6be8 3cbf
000000e0: d7fd c63e 5625 553f e5b2 0b3f b44a 743f
000000f0: afa2 1fbf a01a 5cbf aed4 3b3e df62 5c3f
00000100: cb00 3c3f da21 35bf 3e35 5e3f 5c7a 693f
00000110: a265 1bbf ee61 453f 130c 903e 3e84 5c3f
00000120: d7dc 453f 66c6 cebe 6c65 543f 1a76 303f
00000130: aa62 5f3f 1e91 1abf 096a 0b3f 5ac0 e3be
00000140: 885b 7a3f 8968 68bf fcf7 15bf 5a60 783f
00000150: e610 653f f168 3cbf 9eea 273d 819b 5a3f
00000160: 778c 133f 8da0 763f c08d 45bf 6f6c 193c
00000170: 96bd 863e 905f 693e fd5a 373f dbf0 52bf
00000180: dac9 383f ec2c e13e 426f c6be c2cf 513f
00000190: f531 013f 824d 123e f827 203f d87f 48bf
000001a0: b1c4 6d3f ca09 11bf 958a 5f3f 4644 93be
000001b0: 8318 563f 62bb 79bd e75b 513f 50e6 55bf
000001c0: 80af e7be 3263 743f 2d57 493f 4060 0dbf
000001d0: 3187 753f aa4d 6b3f 5778 503f e66a 5a3f
000001e0: 1d32 25bf 39be 5dbf 0704 573e 8db6 643f
000001f0: 7a79 2e3f 3f9d 38bf f71c 5d3f bbbe 6a3f
00000200: 659c 1dbf 1a16 453f b55a 5c3f b31e 573f
00000210: 6050 443f 72fb eabe 0fa1 553f 9a21 353f
00000220: af54 633f 0d46 10bf 146e 1a3f a730 f3be
00000230: 5dde 793f e798 69bf 59a1 2abf 2f14 793f
00000240: c2ac 633f fc60 38bf b694 cab9 fba7 5f3f
00000250: cf9e 223f 0292 743f 9f29 21bf b063 43bf
00000260: 4948 b53e 78a9 103f 844b 313f 9bd7 34bf
00000270: ea68 573f 0cab 5f3f a644 19bf 031e 3f3f
00000280: 9b82 413f 14d6 463f 48e4 253f 71d3 f3be
00000290: 5e1d 4e3f 9762 c43e 6f67 5c3f 0c0c adbe
000002a0: c6ca fe3e 621a 10bf f130 753f 04dc 69bf
000002b0: 79c8 fabe 8f98 783f e0ab 613f da6f 28bf
000002c0: 1f04 133f 9ffc 643f 9ef2 273f 3ebf 6f3f
000002d0: 3578 51bf bc24 33bf 5632 403f 4e19 b73e
000002e0: 80b3 483f 0f2b 5ebf 719c 453f 25b4 4c3f
000002f0: b575 37bf d85b 3f3f 871e 483f 98e7 293f
00000300: 0f72 223f 535d 31bf 9079 683f 679e ad3d
00000310: 3bd8 263f a08b 19bf 84cd d03e a670 c2bc
00000320: 7bcb 6c3f fc9e 5fbf 3db2 e0be 0006 793f
00000330: 8608 5d3f a204 3bbf 623f 103e 168c 673f
00000340: a463 3f3f 60cf 723f c01f 36bf 04eb 4dbf
00000350: d822 c73e afe3 453f 6c2f 383f 1cec 43bf
00000360: b41c 573f ca5e 643f cb62 29bf 74e8 3d3f
00000370: 786d 623f 950a 493f ae0f 353f b29c 05bf
00000380: 3cf0 593f 3cf4 053f 29f6 573f 97af 04bf
00000390: 02b4 f13e 5fbb babe 5803 773f d23d 68bf
000003a0: 69a8 19bf bac3 793f 5952 623f 183f 31bf
000003b0: 1bda 303e eb92 653f 44aa 313f 1067 743f
000003c0: cd81 06bf 8298 4ebf dee8 b13e 52ab 1d3f
000003d0: 03de 253f 6c3b 24bf 5c62 5d3f 2f23 683f
000003e0: e553 2cbf d2af 453f da51 383f 5cd7 523f
000003f0: 0cdd 2d3f 6647 c0be 4cf1 373f f383 303f
